…
og messages before absl::InitializeLog() is called are written to STDERR\nE0000 00:00:1752559798.728788      35 cuda_dnn.cc:8310] Unable to register cuDNN factory: Attempting to register factory for plugin cuDNN when one has already been registered\nE0000 00:00:1752559798.787336      35 cuda_blas.cc:1418] Unable to register cuBLAS factory: Attempting to register factory for plugin cuBLAS when one has already been registered\n","output_type":"stream"},{"execution_count":6,"output_type":"execute_result","data":{"text/plain":"RobertaModel(\n  (embeddings): RobertaEmbeddings(\n    (word_embeddings): Embedding(767, 768, padding_idx=1)\n    (position_embeddings): Embedding(514, 768, padding_idx=1)\n    (token_type_embeddings): Embedding(1, 768)\n    (LayerNorm): LayerNorm((768,), eps=1e-05, elementwise_affine=True)\n    (dropout): Dropout(p=0.1, inplace=False)\n  )\n  (encoder): RobertaEncoder(\n    (layer): ModuleList(\n      (0-5): 6 x RobertaLayer(\n        (attention): RobertaAttention(\n          (self): RobertaSdpaSelfAttention(\n            (query): Linear(in_features=768, out_features=768, bias=True)\n            (key): Linear(in_features=768, out_features=768, bias=True)\n            (value): Linear(in_features=768, out_features=768, bias=True)\n            (dropout): Dropout(p=0.1, inplace=False)\n          )\n          (output): RobertaSelfOutput(\n            (dense): Linear(in_features=768, out_features=768, bias=True)\n            (LayerNorm): LayerNorm((768,), eps=1e-05, elementwise_affine=True)\n            (dropout): Dropout(p=0.1, inplace=False)\n          )\n        )\n        (intermediate): RobertaIntermediate(\n          (dense): Linear(in_features=768, out_features=3072, bias=True)\n          (intermediate_act_fn): GELUActivation()\n        )\n        (output): RobertaOutput(\n          (dense): Linear(in_features=3072, out_features=768, bias=True)\n          (LayerNorm): LayerNorm((768,), eps=1e-05, elementwise_affine=True)\n          (dropout): Dropout(p=0.1, inplace=False)\n        )\n      )\n    )\n  )\n  (pooler): RobertaPooler(\n    (dense): Linear(in_features=768, out_features=768, bias=True)\n    (activation): Tanh()\n  )\n)"},"metadata":{}}],"execution_count":6},{"id":"109af898","cell_type":"code","source":"device = torch.device(\"cuda\" if torch.cuda.is_available() else \"cpu\")\nmodel = model.to(device)  # 모델 GPU로\n\ndef smiles_to_embedding(smiles, tokenizer, model):\n    try:\n        # 입력을 GPU로\n        inputs = tokenizer(smiles, retu
…
